…
Since you are using strings for your emotions, it is important that you use label encoding to transform these emotions into numbers; otherwise, your model just won’t run!
#Encode emotion labels into numbers


Scaling data
This step is very important as it will prevent your model to fit the volume level of your audio recordings.

Try Random Forest, only 35% accuracy

Try 1 Dimension Convolutional Neural Network



┏━━━━━━━━━━━━━━━━━━━━━━━━━━━━━━━━━┳━━━━━━━━━━━━━━━━━━━━━━━━┳━━━━━━━━━━━━━━━┓
┃ Layer (type)                    ┃ Output Shape           ┃       Param # ┃
┡━━━━━━━━━━━━━━━━━━━━━━━━━━━━━━━━━╇━━━━━━━━━━━━━━━━━━━━━━━━╇━━━━━━━━━━━━━━━┩
│ conv1d_4 (Conv1D)               │ (None, 40, 16)         │            96 │
├─────────────────────────────────┼────────────────────────┼───────────────┤
│ conv1d_5 (Conv1D)               │ (None, 40, 32)         │         2,592 │
├─────────────────────────────────┼────────────────────────┼───────────────┤
│ conv1d_6 (Conv1D)               │ (None, 40, 64)         │        10,304 │
├─────────────────────────────────┼────────────────────────┼───────────────┤
│ conv1d_7 (Conv1D)               │ (None, 40, 128)        │        41,088 │
├─────────────────────────────────┼────────────────────────┼───────────────┤
│ dropout_2 (Dropout)             │ (None, 40, 128)        │             0 │
├─────────────────────────────────┼────────────────────────┼───────────────┤
│ flatten_1 (Flatten)             │ (None, 5120)           │             0 │
├─────────────────────────────────┼────────────────────────┼───────────────┤
│ dense_3 (Dense)                 │ (None, 128)            │       655,488 │
├─────────────────────────────────┼────────────────────────┼───────────────┤
│ dropout_3 (Dropout)             │ (None, 128)            │             0 │
├─────────────────────────────────┼────────────────────────┼───────────────┤
│ dense_4 (Dense)                 │ (None, 64)             │         8,256 │
├─────────────────────────────────┼────────────────────────┼───────────────┤
│ dense_5 (Dense)                 │ (None, 8)              │           520 │
└─────────────────────────────────┴────────────────────────┴───────────────┘
 Total params: 718,344 (2.74 MB)
 Trainable params: 718,344 (2.74 MB)
 Non-trainable params: 0 (0.00 B)





# Compile the model with the desired loss function, optimizer, and metric to optimize
CNN_model.compile(loss = 'categorical_crossentropy',
                  optimizer = 'Adam',
                  metrics = ['accuracy'])
…
